Model: "model"
_________________________________________________________________
 Layer (type)                Output Shape              Param #   
=================================================================
 input_2 (InputLayer)        [(None, 150, 150, 3)]     0

 sequential (Sequential)     (None, 150, 150, 3)       0

 rescaling (Rescaling)       (None, 150, 150, 3)       0

 xception (Functional)       (None, 5, 5, 2048)        20861480  

 global_average_pooling2d (G  (None, 2048)             0
 lobalAveragePooling2D)

 dropout (Dropout)           (None, 2048)              0

 dense (Dense)               (None, 6)                 12294

=================================================================
Total params: 20,873,774
Trainable params: 12,294
Non-trainable params: 20,861,480
_________________________________________________________________
Epoch 1/10
439/439 [==============================] - 788s 2s/step - loss: 0.4598 - accuracy: 0.8333 - val_loss: 0.3073 - val_accuracy: 0.8903
Epoch 2/10
439/439 [==============================] - 739s 2s/step - loss: 0.3385 - accuracy: 0.8735 - val_loss: 0.2919 - val_accuracy: 0.8927
…
